{
    "graph_0": {
        "_type": "graph",
        "format": "torch",
        "nodes": [
            {
                "name": "module",
                "id": 139632244197752,
                "class_name": "AtomicConvModel0(\n  (MLP_list): ModuleList(\n    (0): OpenChemMLP(\n      (layers): ModuleList(\n        (0): Linear(in_features=660, out_features=32, bias=True)\n        (1): Linear(in_features=32, out_features=32, bias=True)\n        (2): Linear(in_features=32, out_features=16, bias=True)\n        (3): Linear(in_features=16, out_features=1, bias=True)\n      )\n      (bn): ModuleList(\n        (0): BatchNorm1d(32, eps=1e-05, momentum=0.1, affine=True, track_running_stats=True)\n        (1): BatchNorm1d(32, eps=1e-05, momentum=0.1, affine=True, track_running_stats=True)\n        (2): BatchNorm1d(16, eps=1e-05, momentum=0.1, affine=True, track_running_stats=True)\n        (3): BatchNorm1d(1, eps=1e-05, momentum=0.1, affine=True, track_running_stats=True)\n      )\n      (dropouts): ModuleList(\n        (0): Dropout(p=0, inplace=False)\n        (1): Dropout(p=0, inplace=False)\n        (2): Dropout(p=0, inplace=False)\n        (3): Dropout(p=0, inplace=False)\n      )\n    )\n    (1): OpenChemMLP(\n      (layers): ModuleList(\n        (0): Linear(in_features=660, out_features=32, bias=True)\n        (1): Linear(in_features=32, out_features=32, bias=True)\n        (2): Linear(in_features=32, out_features=16, bias=True)\n        (3): Linear(in_features=16, out_features=1, bias=True)\n      )\n      (bn): ModuleList(\n        (0): BatchNorm1d(32, eps=1e-05, momentum=0.1, affine=True, track_running_stats=True)\n        (1): BatchNorm1d(32, eps=1e-05, momentum=0.1, affine=True, track_running_stats=True)\n        (2): BatchNorm1d(16, eps=1e-05, momentum=0.1, affine=True, track_running_stats=True)\n        (3): BatchNorm1d(1, eps=1e-05, momentum=0.1, affine=True, track_running_stats=True)\n      )\n      (dropouts): ModuleList(\n        (0): Dropout(p=0, inplace=False)\n        (1): Dropout(p=0, inplace=False)\n        (2): Dropout(p=0, inplace=False)\n        (3): Dropout(p=0, inplace=False)\n      )\n    )\n    (2): OpenChemMLP(\n      (layers): ModuleList(\n        (0): Linear(in_features=660, out_features=32, bias=True)\n        (1): Linear(in_features=32, out_features=32, bias=True)\n        (2): Linear(in_features=32, out_features=16, bias=True)\n        (3): Linear(in_features=16, out_features=1, bias=True)\n      )\n      (bn): ModuleList(\n        (0): BatchNorm1d(32, eps=1e-05, momentum=0.1, affine=True, track_running_stats=True)\n        (1): BatchNorm1d(32, eps=1e-05, momentum=0.1, affine=True, track_running_stats=True)\n        (2): BatchNorm1d(16, eps=1e-05, momentum=0.1, affine=True, track_running_stats=True)\n        (3): BatchNorm1d(1, eps=1e-05, momentum=0.1, affine=True, track_running_stats=True)\n      )\n      (dropouts): ModuleList(\n        (0): Dropout(p=0, inplace=False)\n        (1): Dropout(p=0, inplace=False)\n        (2): Dropout(p=0, inplace=False)\n        (3): Dropout(p=0, inplace=False)\n      )\n    )\n    (3): OpenChemMLP(\n      (layers): ModuleList(\n        (0): Linear(in_features=660, out_features=32, bias=True)\n        (1): Linear(in_features=32, out_features=32, bias=True)\n        (2): Linear(in_features=32, out_features=16, bias=True)\n        (3): Linear(in_features=16, out_features=1, bias=True)\n      )\n      (bn): ModuleList(\n        (0): BatchNorm1d(32, eps=1e-05, momentum=0.1, affine=True, track_running_stats=True)\n        (1): BatchNorm1d(32, eps=1e-05, momentum=0.1, affine=True, track_running_stats=True)\n        (2): BatchNorm1d(16, eps=1e-05, momentum=0.1, affine=True, track_running_stats=True)\n        (3): BatchNorm1d(1, eps=1e-05, momentum=0.1, affine=True, track_running_stats=True)\n      )\n      (dropouts): ModuleList(\n        (0): Dropout(p=0, inplace=False)\n        (1): Dropout(p=0, inplace=False)\n        (2): Dropout(p=0, inplace=False)\n        (3): Dropout(p=0, inplace=False)\n      )\n    )\n    (4): OpenChemMLP(\n      (layers): ModuleList(\n        (0): Linear(in_features=660, out_features=32, bias=True)\n        (1): Linear(in_features=32, out_features=32, bias=True)\n        (2): Linear(in_features=32, out_features=16, bias=True)\n        (3): Linear(in_features=16, out_features=1, bias=True)\n      )\n      (bn): ModuleList(\n        (0): BatchNorm1d(32, eps=1e-05, momentum=0.1, affine=True, track_running_stats=True)\n        (1): BatchNorm1d(32, eps=1e-05, momentum=0.1, affine=True, track_running_stats=True)\n        (2): BatchNorm1d(16, eps=1e-05, momentum=0.1, affine=True, track_running_stats=True)\n        (3): BatchNorm1d(1, eps=1e-05, momentum=0.1, affine=True, track_running_stats=True)\n      )\n      (dropouts): ModuleList(\n        (0): Dropout(p=0, inplace=False)\n        (1): Dropout(p=0, inplace=False)\n        (2): Dropout(p=0, inplace=False)\n        (3): Dropout(p=0, inplace=False)\n      )\n    )\n    (5): OpenChemMLP(\n      (layers): ModuleList(\n        (0): Linear(in_features=660, out_features=32, bias=True)\n        (1): Linear(in_features=32, out_features=32, bias=True)\n        (2): Linear(in_features=32, out_features=16, bias=True)\n        (3): Linear(in_features=16, out_features=1, bias=True)\n      )\n      (bn): ModuleList(\n        (0): BatchNorm1d(32, eps=1e-05, momentum=0.1, affine=True, track_running_stats=True)\n        (1): BatchNorm1d(32, eps=1e-05, momentum=0.1, affine=True, track_running_stats=True)\n        (2): BatchNorm1d(16, eps=1e-05, momentum=0.1, affine=True, track_running_stats=True)\n        (3): BatchNorm1d(1, eps=1e-05, momentum=0.1, affine=True, track_running_stats=True)\n      )\n      (dropouts): ModuleList(\n        (0): Dropout(p=0, inplace=False)\n        (1): Dropout(p=0, inplace=False)\n        (2): Dropout(p=0, inplace=False)\n        (3): Dropout(p=0, inplace=False)\n      )\n    )\n    (6): OpenChemMLP(\n      (layers): ModuleList(\n        (0): Linear(in_features=660, out_features=32, bias=True)\n        (1): Linear(in_features=32, out_features=32, bias=True)\n        (2): Linear(in_features=32, out_features=16, bias=True)\n        (3): Linear(in_features=16, out_features=1, bias=True)\n      )\n      (bn): ModuleList(\n        (0): BatchNorm1d(32, eps=1e-05, momentum=0.1, affine=True, track_running_stats=True)\n        (1): BatchNorm1d(32, eps=1e-05, momentum=0.1, affine=True, track_running_stats=True)\n        (2): BatchNorm1d(16, eps=1e-05, momentum=0.1, affine=True, track_running_stats=True)\n        (3): BatchNorm1d(1, eps=1e-05, momentum=0.1, affine=True, track_running_stats=True)\n      )\n      (dropouts): ModuleList(\n        (0): Dropout(p=0, inplace=False)\n        (1): Dropout(p=0, inplace=False)\n        (2): Dropout(p=0, inplace=False)\n        (3): Dropout(p=0, inplace=False)\n      )\n    )\n    (7): OpenChemMLP(\n      (layers): ModuleList(\n        (0): Linear(in_features=660, out_features=32, bias=True)\n        (1): Linear(in_features=32, out_features=32, bias=True)\n        (2): Linear(in_features=32, out_features=16, bias=True)\n        (3): Linear(in_features=16, out_features=1, bias=True)\n      )\n      (bn): ModuleList(\n        (0): BatchNorm1d(32, eps=1e-05, momentum=0.1, affine=True, track_running_stats=True)\n        (1): BatchNorm1d(32, eps=1e-05, momentum=0.1, affine=True, track_running_stats=True)\n        (2): BatchNorm1d(16, eps=1e-05, momentum=0.1, affine=True, track_running_stats=True)\n        (3): BatchNorm1d(1, eps=1e-05, momentum=0.1, affine=True, track_running_stats=True)\n      )\n      (dropouts): ModuleList(\n        (0): Dropout(p=0, inplace=False)\n        (1): Dropout(p=0, inplace=False)\n        (2): Dropout(p=0, inplace=False)\n        (3): Dropout(p=0, inplace=False)\n      )\n    )\n    (8): OpenChemMLP(\n      (layers): ModuleList(\n        (0): Linear(in_features=660, out_features=32, bias=True)\n        (1): Linear(in_features=32, out_features=32, bias=True)\n        (2): Linear(in_features=32, out_features=16, bias=True)\n        (3): Linear(in_features=16, out_features=1, bias=True)\n      )\n      (bn): ModuleList(\n        (0): BatchNorm1d(32, eps=1e-05, momentum=0.1, affine=True, track_running_stats=True)\n        (1): BatchNorm1d(32, eps=1e-05, momentum=0.1, affine=True, track_running_stats=True)\n        (2): BatchNorm1d(16, eps=1e-05, momentum=0.1, affine=True, track_running_stats=True)\n        (3): BatchNorm1d(1, eps=1e-05, momentum=0.1, affine=True, track_running_stats=True)\n      )\n      (dropouts): ModuleList(\n        (0): Dropout(p=0, inplace=False)\n        (1): Dropout(p=0, inplace=False)\n        (2): Dropout(p=0, inplace=False)\n        (3): Dropout(p=0, inplace=False)\n      )\n    )\n    (9): OpenChemMLP(\n      (layers): ModuleList(\n        (0): Linear(in_features=660, out_features=32, bias=True)\n        (1): Linear(in_features=32, out_features=32, bias=True)\n        (2): Linear(in_features=32, out_features=16, bias=True)\n        (3): Linear(in_features=16, out_features=1, bias=True)\n      )\n      (bn): ModuleList(\n        (0): BatchNorm1d(32, eps=1e-05, momentum=0.1, affine=True, track_running_stats=True)\n        (1): BatchNorm1d(32, eps=1e-05, momentum=0.1, affine=True, track_running_stats=True)\n        (2): BatchNorm1d(16, eps=1e-05, momentum=0.1, affine=True, track_running_stats=True)\n        (3): BatchNorm1d(1, eps=1e-05, momentum=0.1, affine=True, track_running_stats=True)\n      )\n      (dropouts): ModuleList(\n        (0): Dropout(p=0, inplace=False)\n        (1): Dropout(p=0, inplace=False)\n        (2): Dropout(p=0, inplace=False)\n        (3): Dropout(p=0, inplace=False)\n      )\n    )\n  )\n  (MLP): OpenChemMLP(\n    (layers): ModuleList(\n      (0): Linear(in_features=660, out_features=32, bias=True)\n      (1): Linear(in_features=32, out_features=32, bias=True)\n      (2): Linear(in_features=32, out_features=16, bias=True)\n      (3): Linear(in_features=16, out_features=1, bias=True)\n    )\n    (bn): ModuleList(\n      (0): BatchNorm1d(32, eps=1e-05, momentum=0.1, affine=True, track_running_stats=True)\n      (1): BatchNorm1d(32, eps=1e-05, momentum=0.1, affine=True, track_running_stats=True)\n      (2): BatchNorm1d(16, eps=1e-05, momentum=0.1, affine=True, track_running_stats=True)\n      (3): BatchNorm1d(1, eps=1e-05, momentum=0.1, affine=True, track_running_stats=True)\n    )\n    (dropouts): ModuleList(\n      (0): Dropout(p=0, inplace=False)\n      (1): Dropout(p=0, inplace=False)\n      (2): Dropout(p=0, inplace=False)\n      (3): Dropout(p=0, inplace=False)\n    )\n  )\n  (conv): AtomicConvolution()\n)",
                "parameters": [
                    [
                        "MLP_list.0.layers.0.weight",
…
